…
conv x torch.Size([2, 256, 4, 4])
shortcut torch.Size([2, 256, 4, 4])

init x torch.Size([2, 256, 4, 4])
conv x torch.Size([2, 256, 4, 4])
shortcut torch.Size([2, 256, 4, 4])

init x torch.Size([2, 256, 4, 4])
conv x torch.Size([2, 512, 4, 4])
shortcut torch.Size([2, 512, 4, 4])

init x torch.Size([2, 512, 4, 4])
conv x torch.Size([2, 512, 4, 4])
shortcut torch.Size([2, 512, 4, 4])

----------------------------------------------------------------
        Layer (type)               Output Shape         Param #
================================================================
            Conv2d-1           [-1, 64, 29, 29]           9,472
              ReLU-2           [-1, 64, 29, 29]               0
         MaxPool2d-3           [-1, 64, 14, 14]               0
            Conv2d-4           [-1, 64, 14, 14]          36,928
            Conv2d-5           [-1, 64, 14, 14]          36,928
          Identity-6           [-1, 64, 14, 14]               0
          ResBlock-7           [-1, 64, 14, 14]               0
            Conv2d-8           [-1, 64, 14, 14]          36,928
            Conv2d-9           [-1, 64, 14, 14]          36,928
         Identity-10           [-1, 64, 14, 14]               0
         ResBlock-11           [-1, 64, 14, 14]               0
           Conv2d-12            [-1, 128, 7, 7]          73,856
           Conv2d-13            [-1, 128, 7, 7]         147,584
           Conv2d-14            [-1, 128, 7, 7]           8,320
         ResBlock-15            [-1, 128, 7, 7]               0
           Conv2d-16            [-1, 128, 7, 7]         147,584
           Conv2d-17            [-1, 128, 7, 7]         147,584
         Identity-18            [-1, 128, 7, 7]               0
         ResBlock-19            [-1, 128, 7, 7]               0
           Conv2d-20            [-1, 256, 4, 4]         295,168
           Conv2d-21            [-1, 256, 4, 4]         590,080
           Conv2d-22            [-1, 256, 4, 4]          33,024
         ResBlock-23            [-1, 256, 4, 4]               0
           Conv2d-24            [-1, 256, 4, 4]         590,080
           Conv2d-25            [-1, 256, 4, 4]         590,080
         Identity-26            [-1, 256, 4, 4]               0
         ResBlock-27            [-1, 256, 4, 4]               0
           Conv2d-28            [-1, 512, 4, 4]       1,180,160
           Conv2d-29            [-1, 512, 4, 4]       2,359,808
           Conv2d-30            [-1, 512, 4, 4]         131,584
         ResBlock-31            [-1, 512, 4, 4]               0
           Conv2d-32            [-1, 512, 4, 4]       2,359,808
           Conv2d-33            [-1, 512, 4, 4]       2,359,808
         Identity-34            [-1, 512, 4, 4]               0
         ResBlock-35            [-1, 512, 4, 4]               0
        AvgPool2d-36            [-1, 512, 2, 2]               0
          Flatten-37                 [-1, 2048]               0
           Linear-38                  [-1, 200]         409,800
================================================================
Total params: 11,581,512
Trainable params: 11,581,512
Non-trainable params: 0
----------------------------------------------------------------
Input size (MB): 0.05
Forward/backward pass size (MB): 2.85
Params size (MB): 44.18
Estimated Total Size (MB): 47.08
----------------------------------------------------------------
